train gpu:[1]
**********> net struct:RefineDet(
  (vgg): ModuleList(
    (0): Conv2d(3, 64, kernel_size=(3, 3), stride=(1, 1), padding=(1, 1))
    (1): ReLU(inplace)
    (2): Conv2d(64, 64, kernel_size=(3, 3), stride=(1, 1), padding=(1, 1))
    (3): ReLU(inplace)
    (4): MaxPool2d(kernel_size=2, stride=2, padding=0, dilation=1, ceil_mode=False)
    (5): Conv2d(64, 128, kernel_size=(3, 3), stride=(1, 1), padding=(1, 1))
    (6): ReLU(inplace)
    (7): Conv2d(128, 128, kernel_size=(3, 3), stride=(1, 1), padding=(1, 1))
    (8): ReLU(inplace)
    (9): MaxPool2d(kernel_size=2, stride=2, padding=0, dilation=1, ceil_mode=False)
    (10): Conv2d(128, 256, kernel_size=(3, 3), stride=(1, 1), padding=(1, 1))
    (11): ReLU(inplace)
    (12): Conv2d(256, 256, kernel_size=(3, 3), stride=(1, 1), padding=(1, 1))
    (13): ReLU(inplace)
    (14): Conv2d(256, 256, kernel_size=(3, 3), stride=(1, 1), padding=(1, 1))
    (15): ReLU(inplace)
    (16): MaxPool2d(kernel_size=2, stride=2, padding=0, dilation=1, ceil_mode=True)
    (17): Conv2d(256, 512, kernel_size=(3, 3), stride=(1, 1), padding=(1, 1))
    (18): ReLU(inplace)
    (19): Conv2d(512, 512, kernel_size=(3, 3), stride=(1, 1), padding=(1, 1))
    (20): ReLU(inplace)
    (21): Conv2d(512, 512, kernel_size=(3, 3), stride=(1, 1), padding=(1, 1))
    (22): ReLU(inplace)
    (23): MaxPool2d(kernel_size=2, stride=2, padding=0, dilation=1, ceil_mode=False)
    (24): Conv2d(512, 512, kernel_size=(3, 3), stride=(1, 1), padding=(1, 1))
    (25): ReLU(inplace)
    (26): Conv2d(512, 512, kernel_size=(3, 3), stride=(1, 1), padding=(1, 1))
    (27): ReLU(inplace)
    (28): Conv2d(512, 512, kernel_size=(3, 3), stride=(1, 1), padding=(1, 1))
    (29): ReLU(inplace)
    (30): MaxPool2d(kernel_size=2, stride=2, padding=0, dilation=1, ceil_mode=False)
    (31): Conv2d(512, 1024, kernel_size=(3, 3), stride=(1, 1), padding=(3, 3), dilation=(3, 3))
    (32): ReLU(inplace)
    (33): Conv2d(1024, 1024, kernel_size=(1, 1), stride=(1, 1))
    (34): ReLU(inplace)
  )
  (conv4_3_L2Norm): L2Norm()
  (conv5_3_L2Norm): L2Norm()
  (extras): ModuleList(
    (0): Conv2d(1024, 256, kernel_size=(1, 1), stride=(1, 1))
    (1): Conv2d(256, 512, kernel_size=(3, 3), stride=(2, 2), padding=(1, 1))
  )
  (arm_loc): ModuleList(
    (0): Conv2d(512, 12, kernel_size=(3, 3), stride=(1, 1), padding=(1, 1))
    (1): Conv2d(512, 12, kernel_size=(3, 3), stride=(1, 1), padding=(1, 1))
    (2): Conv2d(1024, 12, kernel_size=(3, 3), stride=(1, 1), padding=(1, 1))
    (3): Conv2d(512, 12, kernel_size=(3, 3), stride=(1, 1), padding=(1, 1))
  )
  (arm_conf): ModuleList(
    (0): Conv2d(512, 6, kernel_size=(3, 3), stride=(1, 1), padding=(1, 1))
    (1): Conv2d(512, 6, kernel_size=(3, 3), stride=(1, 1), padding=(1, 1))
    (2): Conv2d(1024, 6, kernel_size=(3, 3), stride=(1, 1), padding=(1, 1))
    (3): Conv2d(512, 6, kernel_size=(3, 3), stride=(1, 1), padding=(1, 1))
  )
  (odm_loc): ModuleList(
    (0): Conv2d(256, 12, kernel_size=(3, 3), stride=(1, 1), padding=(1, 1))
    (1): Conv2d(256, 12, kernel_size=(3, 3), stride=(1, 1), padding=(1, 1))
    (2): Conv2d(256, 12, kernel_size=(3, 3), stride=(1, 1), padding=(1, 1))
    (3): Conv2d(256, 12, kernel_size=(3, 3), stride=(1, 1), padding=(1, 1))
  )
  (odm_conf): ModuleList(
    (0): Conv2d(256, 27, kernel_size=(3, 3), stride=(1, 1), padding=(1, 1))
    (1): Conv2d(256, 27, kernel_size=(3, 3), stride=(1, 1), padding=(1, 1))
    (2): Conv2d(256, 27, kernel_size=(3, 3), stride=(1, 1), padding=(1, 1))
    (3): Conv2d(256, 27, kernel_size=(3, 3), stride=(1, 1), padding=(1, 1))
  )
  (tcb0): ModuleList(
    (0): Conv2d(512, 256, kernel_size=(3, 3), stride=(1, 1), padding=(1, 1))
    (1): ReLU(inplace)
    (2): Conv2d(256, 256, kernel_size=(3, 3), stride=(1, 1), padding=(1, 1))
    (3): Conv2d(512, 256, kernel_size=(3, 3), stride=(1, 1), padding=(1, 1))
    (4): ReLU(inplace)
    (5): Conv2d(256, 256, kernel_size=(3, 3), stride=(1, 1), padding=(1, 1))
    (6): Conv2d(1024, 256, kernel_size=(3, 3), stride=(1, 1), padding=(1, 1))
    (7): ReLU(inplace)
    (8): Conv2d(256, 256, kernel_size=(3, 3), stride=(1, 1), padding=(1, 1))
    (9): Conv2d(512, 256, kernel_size=(3, 3), stride=(1, 1), padding=(1, 1))
    (10): ReLU(inplace)
    (11): Conv2d(256, 256, kernel_size=(3, 3), stride=(1, 1), padding=(1, 1))
  )
  (tcb1): ModuleList(
    (0): ConvTranspose2d(256, 256, kernel_size=(2, 2), stride=(2, 2))
    (1): ConvTranspose2d(256, 256, kernel_size=(2, 2), stride=(2, 2))
    (2): ConvTranspose2d(256, 256, kernel_size=(2, 2), stride=(2, 2))
  )
  (tcb2): ModuleList(
    (0): ReLU(inplace)
    (1): Conv2d(256, 256, kernel_size=(3, 3), stride=(1, 1), padding=(1, 1))
    (2): ReLU(inplace)
    (3): ReLU(inplace)
    (4): Conv2d(256, 256, kernel_size=(3, 3), stride=(1, 1), padding=(1, 1))
    (5): ReLU(inplace)
    (6): ReLU(inplace)
    (7): Conv2d(256, 256, kernel_size=(3, 3), stride=(1, 1), padding=(1, 1))
    (8): ReLU(inplace)
    (9): ReLU(inplace)
    (10): Conv2d(256, 256, kernel_size=(3, 3), stride=(1, 1), padding=(1, 1))
    (11): ReLU(inplace)
  )
) 
Resuming training, loading /wdc/LXY.data/models/pytorch2/cocovoc/refinedet512_252.pth...
Loading the dataset...
Training RefineDet on:cocovoc
Using the specified args:Namespace(arm_gamma=10.0, basenet='vgg16_reducedfc.pth', batch_size=20, cuda=True, dataset='cocovoc', gamma=10.0, gpu='1', load_num='252', log_dir='../../logs', lr=0.0001, model_dir='/wdc/LXY.data/models/pytorch2', num_workers=1, save_weight_period=2, start_iter=252, visdom=False)
…
